GCN_Conv_1/GCN_Conv.pt (torch, 416220 bytes, 10 tensors)

linear1.weight f8 [288, 36]
0	0x4002cc2281471be2	2.3496751880479545
1	0x3fed4021006a8fe6	0.914078236401562
2	0x3fc87c68eb61adeb	0.19129668706169353
3	0x3ff1760026e57404	1.0913087386500147
4	0xbfb9bbe00220e606	-0.10052299549069951
5	0x3fe03e789ce6f391	0.5076258720870205
6	0x3fd9d0f97ec93fa4	0.4033797968049788
7	0xbfedaafaf57e2962	-0.9271216196805592
8	0x3fef0b21dd4d03d7	0.9701089212686566
9	0x3ff2bdfa6dbebdf8	1.1713814055364065
10	0xbfe3f4f89f5e6ec5	-0.6236537087129014
11	0x3ff644370c7f737d	1.391654061145544
12	0x3fe3b45ad9e7992c	0.6157659774733353
13	0xbfec42484a3f29bf	-0.8830911111957035
14	0x3fe529509b27317a	0.6612933187803229
15	0xbfaab5a471234c86	-0.05216707116201129
16	0xbfe7cc6a481332ca	-0.743703022738907
17	0x3fdd9a577b1439f8	0.4625452711051419
18	0x3fdbc4c142f6ad48	0.4338839677754618
19	0xbfd8c4571e46ee03	-0.38698366123909994
20	0xbfd2921d1b70a3af	-0.29016807250678317
21	0xbfe3d1deb1374ffe	-0.6193688832522637
22	0xbfd8870dba075d5a	-0.38324301878806966
23	0x3fd437e5b5339a0e	0.31591170020547643
24	0xbfe11a508b2d4330	-0.5344622343346597
25	0xbfdd7d362e22f56e	-0.46076731210253896
26	0x3fe1cfbf2311a544	0.5566096959056854
27	0xbff89b73be86ad41	-1.5379521791863484
28	0xbfe1b6aa05d89441	-0.5535478700809408
29	0xbfe27d1ccde2da22	-0.5777725239957514
30	0xbfe2a597a0f70691	-0.5827139037939607
31	0x3fe8e62cd0654a12	0.7780975408771289
32	0xbfe44304a5b1ad86	-0.6331809269153588
33	0xbfecdc7456f7fa5b	-0.9019109438521115
34	0xbfd84683827725de	-0.3793038152767546
35	0xbfcd3e28ce8fab32	-0.22845945440288912
36	0xbff9f37784f47c7f	-1.6219401544147158
37	0xbff586e4c9e2866f	-1.3454330335738651
38	0x40011b9d1595825d	2.1384832082988354
39	0xbff1c3f071a029bf	-1.1103367269994207
40	0xbfe7bb84dbefa141	-0.7416405006052075
41	0x400083f54732d386	2.0644326746355004
42	0xbfef0c20c62365f6	-0.9702304716003585
43	0xbfee713f4923b549	-0.9513241222863736
44	0x3ff46b46f279e446	1.2761907073711583
45	0xbff51879948d7438	-1.3184753229936756
46	0xbff4d7a616d8d8f5	-1.3026486294234563
47	0x3ff163ac9b151afc	1.0868345315845422
48	0xbfeafbc83d2d2b33	-0.8432351298191406
49	0xbfd6d8e14dd2bdb8	-0.3569873104088077
50	0x3febcc9f54487a74	0.8687283178476961
51	0xbff6f2b069164811	-1.4342502694094075
52	0xbff0a4a00de1cabb	-1.0401917021051037
53	0x400151f378f9fdef	2.1650151683131678
54	0xbfe5d9d42de35110	-0.6828404327630171
55	0xbff13a9cf82a77dd	-1.0768098539333473
56	0x3ffeb5e125eab45b	1.9194041710973326
57	0xbfe37ceaab0893c9	-0.608998617219748
58	0xbfe708cd4b42cf8a	-0.7198244543019297
59	0x3fef147d8ecc7fe5	0.9712512768783169
60	0xbff4fe683f727de5	-1.3121111372382697
61	0xbff38699a8c605e1	-1.2203613846507937
62	0x3ff6f03fc3e2aa3b	1.4336545612119511
63	0xbfe54415d7606e3a	-0.6645611960006541
64	0xbfc71b3df4457d1c	-0.18051886012379093
65	0x3fcd02fde3c26f82	0.22665380116529482
66	0xbff4fbb7c78d741a	-1.3114545626660914
67	0x3fe2ec7d6d79806e	0.5913684023071377
68	0x3fd2ec5b7bcf5f7b	0.2956761082727934
69	0xbff6d7bdb12da18b	-1.4276711388612024
70	0xbfdc8dc04f267540	-0.4461518071128303
71	0x3febbbf199d0d642	0.8666923526968235
72	0x3ffd82c157128a69	1.8444226647631246
73	0x3ff8ee2b42de5ae2	1.5581467258504564
74	0xbfe14f315d3756a6	-0.5409170933368912
75	0x3feb88aea35b249d	0.8604348364398394
76	0x3feece739757fc4d	0.96270160254779
77	0xbff83747331d4638	-1.513495635667267
78	0x3fdaac2affefd97c	0.41675829881514637
79	0x3fe63acaf8595b6a	0.6946768618171124
80	0xbfe01edc4af992f7	-0.5037671532014362
81	0x3fec2f3b60ca6cae	0.8807656183666006
82	0x3ff6cacbecd69d6b	1.424510884427799
83	0xbff6ecd0b7b94bed	-1.4328162361823573
84	0x3feae1e6793ff3d7	0.8400757187042655
85	0x3fe70c4453a0550f	0.7202474244428759
86	0xbff92d8ed8ab2d49	-1.5736225570315858
87	0x3fcfcbbc6ec4872e	0.24840503128603458
88	0x3feff792bb2cb553	0.9989713340525362
89	0xc0065f554dbe8b12	-2.7965494226240333
90	0x3fd2a32c0cc7fd79	0.2912092327896612
91	0x3feccc3542f1cee4	0.8999277408133506
92	0xc0083756c7efd477	-3.0270209903779306
93	0x3fe305f68d696673	0.5944779169032713
94	0x3ff384d1247c5775	1.2199260163519885
95	0xc004af4b483b331e	-2.5855928080622013
96	0xbfca27b36f4ff9b1	-0.2043365758435818
97	0x3fe8edc94f52ac6d	0.7790266560817948
98	0xc000ba580494b075	-2.0909881933094376
99	0xbfc305d596073088	-0.14861554933157017
100	0x3fd8ee40c1e78289	0.3895418065640475
101	0xbfe0c134ecce9759	-0.5235848069321306
102	0xbfd0cc82dde56b45	-0.26248237294719373
103	0xbfe0db63c922e8e7	-0.5267809799618391
104	0x3fac7d6a036e45b0	0.05564433376197131
105	0x3fd8eacb62ac71a7	0.3893307174310174
106	0xbfb2ce1b02151ab2	-0.07345742035713945
107	0xbff34d2d2a0ed07e	-1.206341900147009
108	0x3fd2c0b577084aa6	0.2930120146203684
109	0xbfd1d53f80ffdee4	-0.278640628791875
110	0xbfffbddc086b8957	-1.9838524178417936
111	0x3fdb3ab4d9dc086e	0.4254581573042121
112	0x3fdac1738bc3d609	0.41805733345913204
113	0xc00374bde8ad777d	-2.432002847474847
114	0x3fc07362eeb5c05e	0.1285213151527413
115	0xbf5beebbd1de0c6b	-0.0017048677613906947
116	0xc0009112da52b864	-2.0708367401594376
117	0xbfc24c5d4b868826	-0.14295545757073674
118	0xbfab8ae8da096589	-0.05379417096691969
119	0xc0026572ba8d5861	-2.2995352339158193
120	0xbfd9cb0a0d41538b	-0.4030175332493903
121	0xbfc78f8b04278856	-0.18406808569767702
122	0xc000638ea32a765a	-2.0486119029363126
123	0xbfdbe5fe80f56e7b	-0.4359127292025062
124	0x3fccdb0b8310ed1e	0.22543472194397735
125	0xc00166ba1aacf2c6	-2.1751596530942576
126	0xbfe3bd61326afd59	-0.6168676361775552
127	0x3fcfb9af767ae909	0.2478541687504008
128	0xc00062417ce991c9	-2.047976470830893
129	0xbfdb02cfa6561ff5	-0.4220465778712417
130	0xbfaccc6308fdbb87	-0.05624684796099815
131	0xbfe4d21cc4b01462	-0.6506484834250268
132	0x3fe9dddd57df2b96	0.8083330837483682
133	0x3ff15cbc9ef55da1	1.085140820437893
134	0xbfe7ceb5bdfa7773	-0.7439831457629523
135	0xbfdd2fe124a1821f	-0.45604733063922426
136	0xbfdeffd6b1a879a8	-0.4843651518766827
137	0x3fb8dca6ef5bf315	0.09711688369493417
138	0xbfc4c67452b4d8c9	-0.1623063472595219
139	0xbfe84f87c3ab5cc5	-0.7597082921664869
140	0xbfaa6dfee39c298a	-0.051620450291085154
141	0xbfefe20a04458834	-0.9963426669530748
142	0xbfe7b296dafa2153	-0.7405504490753095
143	0xbf625bf7fec17527	-0.002241119733339975
144	0x3fe44ff79fb9fcc0	0.6347616309793906
145	0x3febcbdef477e6d7	0.8686365866444373
146	0x3fe04ec20489aeb1	0.5096139992360432
147	0x3ff31fc746a2d50a	1.1952584037038059
148	0x3fee1f55e0e6381c	0.9413251297535257
149	0x3fe2256ea9c0c63e	0.5670693698395508
150	0x3ff6a7d1b0e518f9	1.4159714612920296
151	0x3ffa7255e92abf9f	1.652913962181607
152	0xbfaea6954b26a46d	-0.05986467878694488
153	0x3fe87c695f63a7c0	0.765186964327988
154	0x3febf7f172cf5e40	0.8740164987929759
155	0x3fd8fce548a6219c	0.39043552488922173
156	0x3ff1e5443130e3c6	1.1184732362291796
157	0x3fedbb72cddf2de7	0.9291318913396339
158	0x3fe65961f1ef80ab	0.6984109616569375
159	0x3ff30ee7a95c740c	1.191138898436523
160	0x3fe5b642aa68c289	0.6784985855393454
161	0x3ff3f14147d814ae	1.2464001470955668
162	0x3ff5d9d7786c382e	1.3656840042126634
163	0x3fe60a20a99872bb	0.6887362778102991
164	0x3fe4a9a9c5ed6956	0.6457108369607265
165	0x3ff0e08e9b8c5302	1.0548235012149125
166	0x3fd1d9e22dddd6aa	0.2789235542216867
167	0x3fe76bb7a867dddc	0.7318990983175655
168	0x3fec8526a7014b29	0.8912537824456638
169	0x3fd85e0cd391b33e	0.3807403627495666
170	0x3fe78fcf5eed25ef	0.7363049367933722
171	0x3ff5a26be3494ee6	1.3521536711095279
172	0xbfab4abb31ab8900	-0.053304529011954926
173	0xbfc98641ea9f4beb	-0.19940971332707078
174	0x3ff22e2440a4f917	1.136265041844643
175	0x3fe27f6dca84239f	0.5780552821535031
176	0xbfd57d9ec0b4b036	-0.33579224413802267
177	0x3ff11d2bbc8f09e5	1.069621788556668
178	0x3fe022170cbd5d04	0.5041613816091801
179	0xbfe8000c741779fa	-0.7500059382835496
180	0xbfc20866e46b5b75	-0.1408814063385894
181	0x3fd12818305eaba4	0.2680721733437912
182	0xbfe4c06d8cdae0db	-0.6484897376131146
183	0x3fcd0276bf4e295b	0.2266376909358979
184	0x3fe6fea497fcb2fe	0.7185843437669914
185	0xbfe68e7a05ec76be	-0.7048921695420274
186	0xbfcebfcd87b2ba00	-0.24022835851560842
187	0xbfd0db26b452ab46	-0.2633759270635675
188	0x3fc96c8e71845d0c	0.19862537901710942
189	0x3fac3428a978189d	0.0550854403373233
190	0x3fddc75af04466b2	0.465292677532129
191	0xbfd7668e1b80d6ab	-0.36563446699015384
192	0x3fcd96b5b785d561	0.231161799059616
193	0x3fd76821557ba6f5	0.3657306036753732
194	0xbfdb3003e6c4ae10	-0.4248056176754469
195	0xbfc596268ec39c35	-0.16864473315146858
196	0x3fe491179a47945f	0.6427114499353016
197	0xbfdb525147a5fceb	-0.4268992614451707
198	0xbfcbb8effd5f679d	-0.21658134338104854
199	0x3fb513ffc451eaee	0.08233641188591509
200	0xbfb58f7ed55d0f7b	-0.0842208166987443
201	0xbfd677cd41712dab	-0.35106212035017376
202	0x3fd9a60a1431063d	0.4007592389280921
203	0x3fd6a7c5217153cb	0.35398987069976035
204	0x3fd5df0b2b2bc7e5	0.3417385026542646
205	0x3fe380750ca68e82	0.6094308135111108
206	0x3fe4b02c1ef10d55	0.6465054134682001
207	0xbfc279636b4d43d1	-0.14432947863909232
208	0x3fb63eef0893ce30	0.08689779242904971
209	0x3fd630f54d0742de	0.3467381717901342
210	0x3fe0f42cf1e80061	0.5298065876704748
211	0x3fd7cc1b793b4c1b	0.37183272208238954
212	0xbfd0855fe2a868d1	-0.2581405366378365
213	0x3fd71299a18ecbd0	0.3605102613175264
214	0xbfbd7a23ae2cd111	-0.11514494898148465
215	0x3fdb21494160f88d	0.42390662560126985
216	0x3fef13c4c3437588	0.9711631597271415
217	0xbfd2678e9d73e64d	-0.28757062317126697
218	0x3fcb6b616e74b845	0.21421449559551511
219	0x3fe8fa861611763a	0.780581515409444
220	0xbfb80b1e3c4629bc	-0.09391964885268228
221	0xbfe85d8b4f2107e7	-0.7614189668167882
222	0xbfb2a9470cb40697	-0.07289547023904173
223	0xbfeb014021e01cc9	-0.8439026509885476
224	0x3fbc044caf97c4e8	0.10944060599264882
225	0xbfb298cd046290ec	-0.07264405591064688
226	0xbfd3ec20f1e303cc	-0.3112871515441469
227	0x3fb31d7b4de396dc	0.07466860438907069
228	0xbfdd64afd5d08bd8	-0.45927043800673806
229	0xbfe42f6128039171	-0.6307836324236132
230	0x3fd814b008746135	0.3762626726688894
231	0xbff1229148ed1e29	-1.0709393356972987
232	0xbff4ac6398252c43	-1.2920871680423864
233	0x3fe0ec38cca8999f	0.5288356778371969
234	0xbf98b6ea735a08b7	-0.024135268488415487
235	0xbff1063157e4122f	-1.0640119012106302
236	0x3fd093e1399dfd09	0.2590258658091931
237	0xbfb9b713e780d581	-0.10044979478774076
238	0xbfe59e895b904cba	-0.675602606616301
239	0x3fd389f13183315c	0.3052943213958963
240	0x3f9674a0db596bf2	0.021929276836413387
241	0xbfe191524c2d340a	-0.5489894378494011
242	0xbfd18f338d34073d	-0.27436531819704496
243	0xbfebd45aefb902c1	-0.8696722681125594
244	0xbfeaf360540c25d0	-0.8422090188552662
245	0xbff0122f57200139	-1.0044396785088578
246	0xbff9028dd520821b	-1.5631235432885038
247	0xbfd36195c9e20bad	-0.30283112254272276
248	0xbfeb7023a06b225d	-0.8574388631032651
249	0xbff1d8ca5ebfd5dd	-1.1154273701807746
250	0xbfd6b2bc633e6702	-0.3546591729333245
251	0xbf9b19867842bee3	-0.026464558687336114
252	0xc005f0c7d35abfb4	-2.7425686370915745
253	0xbff77253a0928ffd	-1.4654117843974739
254	0x3fe0247972d4b682	0.5044524424353798
255	0xc00072334b854041	-2.0557618999519325

linear1.bias f8 [288]
0	0xbff4c23ad9300bc2	-1.2974194034475066
1	0xbfdd0ab7b7eee6ff	-0.45377915346362835
2	0xbfede13b535cb30f	-0.9337441089788586
3	0xbfb173de83a057ce	-0.06817427361997305
4	0x3fc33daf10fa824f	0.15031994179755023
5	0xbfe96d0ac2a07bf1	-0.7945607949549168
6	0xbfb7890247a440db	-0.0919343399912153
7	0xbfcfd01aea3769bb	-0.24853836475706523
8	0xbfffd29128b93b9c	-1.9889079657329836
9	0x3ffe31137b8a29f8	1.8869814706582684
10	0xbfeba1fb59badf90	-0.8635231735743094
11	0x3feff52e2e5b423b	0.9986792474174487
12	0xbff888c510d77e50	-1.5333910615808186
13	0x3ffc1af49322faad	1.7565809009098914
14	0xbfbfec78ac841108	-0.12470201694310756
15	0xc0033731b43c9b74	-2.401950271701418
16	0xbfd469a4ef5e1529	-0.3189480149815887
17	0x4003d1b4803fe297	2.4773950595375243
18	0xbfa2215306a693d1	-0.035410494386531995
19	0x3fddc1821bd4a1eb	0.4649358054907952
20	0xbff38a032d556b37	-1.22119443615402
21	0xbfaf6a4e18ab841f	-0.061357918273422955
22	0xbfdbe1b1be3c56a5	-0.4356502874155502
23	0x3fdf9929f59e4ec6	0.49372338281794403
24	0xbfe316a3db4b5cc9	-0.5965136797994087
25	0xbfe619134f84247e	-0.6905609658289362
26	0xbfe098798c11a4e6	-0.5186126456948414
27	0xbfb2810483bec0ec	-0.07228115288194531
28	0xbfcc519274443c68	-0.22123938252522923
29	0xbffc71cbed2633cb	-1.777782369960948
30	0xbfd2d6492b4f6e09	-0.29432896832960914
31	0x3ff39589bff239a1	1.224008321561634
32	0x3fd6b08c319380b7	0.3545256122724924
33	0x3fdadd0bc30ff883	0.4197415738016234
34	0xbf83118f5743abf4	-0.009310836649509803
35	0x3fbad1e3542fe59d	0.10476513676976258
36	0xbfd079c0288a4c81	-0.25743106802946875
37	0x3ff1ef5e9c20b204	1.120939836381809
38	0x3fd8b141fd280341	0.3858189556340684
39	0xbfeb2016b34489c8	-0.8476670743296433
40	0xbff3194419e14030	-1.1936684618886026
41	0xc0046415d290db10	-2.5488697481590705
42	0x3ff08ef690a6bfd7	1.0349031115001617
43	0xbfea70a2c51f7ddd	-0.8262494897898552
44	0xbfdd3e8842f402ae	-0.45694166696925265
45	0xbfb268e0ecf93301	-0.07191282067760697
46	0xbfcdd518f3d22ecb	-0.2330657187015873
47	0x3fd5699f1f93230b	0.33457162936660784
48	0xbfc68b3f1c32d8fe	-0.17612446667562404
49	0x3fd4a23fd16173ea	0.3224029106839327
50	0x3ffa4b2c5e19ae60	1.6433528590959199
51	0xbfc2806b06d549bb	-0.1445440085759183
52	0xbfb3dbb4da07f98f	-0.07757120440508046
53	0x3fc394d529768323	0.15297951244885963
54	0x3fe72eb2b535e569	0.7244504489200781
55	0xbfefb9bc600241fc	-0.9914228320286038
56	0xbf8a600ea4f34243	-0.01287852707756188
57	0x3fe72eea4aa7ad10	0.7244769533257642
58	0xbfe3030b37d11bef	-0.5941215601131925
59	0xbff05f204b2caae6	-1.023224156999896
60	0x3fc6e04efb4c2db3	0.17872035284413598
61	0x3fd471fc2ba2e47b	0.31945709477765377
62	0xbfbc1f9bb47a35df	-0.10985730320154329
63	0xbff3b9ecf2c2c611	-1.2328919871182544
64	0x3fc5c889b6cc7acb	0.17018243241996908
65	0x3fe69b0fcf8e568c	0.7064284375980647
66	0x3fe00e3a817bb551	0.5017368821114961
67	0x3ffc0a9460b3db8b	1.7525829102939692
68	0x3fd8e08e55c0c186	0.38870581030189333
69	0x3fba3a79889a8211	0.10245475373313463
70	0x3fecf413c5c8fa0a	0.9047945845593983
71	0x3fc4c3a185216ff8	0.16222018242376612
72	0x3f9a3704f77b8ec8	0.025600507359640173
73	0xbfe662f53e3a33f8	-0.6995798316362416
74	0x3ff2ed8687990d90	1.1829896256248027
75	0x3ff6b27a8e7642c1	1.4185739102287445
76	0xbfe44de50500f1e1	-0.6345086190918289
77	0x3ff7ee03fac5153f	1.4956092639634588
78	0x3feee3f2f89a964f	0.9653258185905517
79	0xbfeb9b19c2095f10	-0.8626831807877995
80	0x3ff12cea1c58c5c0	1.0734654528899767
81	0x3fc5e24f7437de33	0.17096894430845708
82	0xbff771007b0defb5	-1.4650883490385074
83	0x3fd523fab8d39b58	0.3303210072467002
84	0xbfedd680d7202b03	-0.9324344827340102
85	0x3fb29a0251f211f0	0.07266249180435813
86	0x3fd1187e16f4cc8c	0.26711990587063705
87	0xbfe0ab661edb1a4e	-0.5209227183011735
88	0x3fd0528f57ca582d	0.2550390584305003
89	0x3fed35e28a17db74	0.9128277489788688
90	0x3fec830bf410fb7e	0.8909969107552198
91	0x3ff26baa7064f2ab	1.151285590210288
92	0x3ff90214fca32841	1.5630082958837337
93	0x3fc74fd0c3309457	0.1821232750964181
94	0x3fd78b93c0a0e361	0.3678941136491201
95	0xc006032c7011d053	-2.7515496020733194
96	0xbfd102ed7cbf073c	-0.2658036916947031
97	0xc0029ed44ce9db10	-2.3275533684603786
98	0x3fea37d27e3cf4cc	0.8193142381275265
99	0x40043f3afc21e5b6	2.530874223503555
100	0xbff404004b16aa73	-1.2509768422266034
101	0x3feea1de1cfcfcac	0.957259232156408
102	0xbfe23a770823e627	-0.5696368369091872
103	0x3fbe930d84f1e734	0.11943134780622416
104	0x3fe6e7ffce547d62	0.7158202199824866
105	0xbff49f3bea003337	-1.288875497880509
106	0x3fdb6b54a7fb73f6	0.4284259453250451
107	0xbfbc5ff8b9385b0d	-0.11083941003776605
108	0x3fed17bfbd5c808d	0.9091490457976917
109	0xbfe0e4a948d288c5	-0.5279127523720254
110	0x3fe726c2f1ad1abb	0.7234816284406728
111	0xbfe6d5d10deef9af	-0.7136006614817257
112	0xbfd0bd29d9d24850	-0.261545622554995
113	0x3fd96535a3521022	0.39680233907006557
114	0x3ff68ef764e5d254	1.4099039021795265
115	0x400226f0373c1b8a	2.2690128627031685
116	0x3ff81fbc1cb08f4a	1.5077477570238949
117	0xbfe0df80c888adf5	-0.5272830883672542
118	0xbfd070314c1ce1f0	-0.2568476908959658
119	0xbff894ea9208c15c	-1.5363565163098292
120	0x3fa7ad047434d8fe	0.04624189299140545
121	0x3fdfc742a6d58a78	0.49653688709637533
122	0x3ffbcec7f557ea01	1.7379836639144062
123	0x3fdd3a2f27d06f24	0.4566762818155772
124	0xbfeb6be1982fa90f	-0.8569190952669333
125	0x3fe6f807ba8f0e0e	0.7177771228529666
126	0x3fef54d59e041917	0.9791057668924478
127	0x40025f17e59f15dc	2.2964322985815055
128	0x3fe86c9dcaec81e8	0.7632588351589762
129	0x3fed4ee1b737c7e8	0.9158791140055174
130	0x3fe8e7a1ac8a82a0	0.7782753343527311
131	0x3fe00c8abc347377	0.5015309978367516
132	0xbff4180c782056bd	-1.2558712665972245
133	0x3ffa0bcc06c2befe	1.6278801216212169
134	0xbfe19010a194e9c9	-0.5488360553638866
135	0xc001341f26c8dd7e	-2.1504500417756267
136	0x3fee82ebf8ed426d	0.9534816610194646
137	0xbfe9efb6a3c6d276	-0.8105118941080736
138	0x3ff9db0a8b3f90bc	1.6159768523585134
139	0x3fd8f5ec50c67546	0.3900099552937103
140	0xbfc001f33b4485de	-0.12505951303414425
141	0xbfe4b012e7c75c4f	-0.6464933897904163
142	0xbfd92afecb6e08d1	-0.3932492243403774
143	0xbffd7bc5dcd922d5	-1.8427179934389433
144	0xbfdc18451bada56a	-0.43898132040938853
145	0xc00033dc7d7b7d99	-2.0253228953658433
146	0x3fe19e65d3d704d8	0.5505856645105736
147	0x3ff350d13011d745	1.2072307470056824
148	0x3feee8c91ba55837	0.9659162082632581
149	0xbfd500eaccffec2e	-0.3281809808683559
150	0x3fcf96904c1d2598	0.24678233829972096
151	0xbfb02026a5486848	-0.06299058470941177
152	0x3fea3eab5378e6e7	0.8201500540082777
153	0xbfeaea1c979f307d	-0.8410780869831026
154	0xbfc46d7f66c6383d	-0.15959160345340875
155	0xbfd50cd566abb740	-0.32890830065194976
156	0x3fedd944c0407006	0.9327720408359716
157	0xbfd8c000e794e752	-0.38671896567722286
158	0xbf5031f1d2baa3d1	-0.000988470225744321
159	0x3fac2e2e7bfb5999	0.05503983748865266
160	0xbfd43694aedafabb	-0.3158313472339775
161	0x3fcd2a346c667b5c	0.2278504876421391
162	0x3fdac494a86690c8	0.41824833341003087
163	0xbfa49abafe57a34e	-0.04024299959912146
164	0x3ff22d1a2d049e74	1.1360112913625047
165	0xbfbdaf1a14e48e80	-0.11595309267118559
166	0x3f6249601bdb1226	0.002232253754160379
167	0xbfed2d10d14ed28b	-0.9117511833233761
168	0x3f9d3cedf7055d09	0.028552740289652188
169	0xbfe12ea7d047faa5	-0.5369452541343277
170	0x3ff8c15ffbbba0e2	1.5472106774632768
171	0x3ff82cdc4ca94be0	1.5109522814352587
172	0xc000e422d636756f	-2.111394570862721
173	0x3fefa406025efa39	0.9887723966892913
174	0xbfbad2ad874d8b9d	-0.10477718880933513
175	0x3fe61112f37f1117	0.6895842319286513
176	0x3ff28e43b341bdcb	1.1597325327128256
177	0xbff544e89af39b94	-1.3293233921810712
178	0xbfd587f12b475189	-0.33642224527763936
179	0x3fea71f2473cd82c	0.8264094725952922
180	0xbfe618f219a2a8cf	-0.6905451298419168
181	0x3fe52b9bf4e19984	0.6615733893238915
182	0x3fa8210fd663cb6a	0.04712724201262726
183	0xbff0f7a4de950468	-1.0604599661458227
184	0xbfc85c95585f0c06	-0.19032542052272577
185	0xbfcb6daff886372c	-0.21428489336943224
186	0xbfe4417b2d1bfcc0	-0.6329933053056251
187	0x3fdc60a977704b33	0.4433997789757768
188	0xbfe11c738928cc48	-0.5347230605024231
189	0xbff0d3a1dcb8a8f7	-1.051668035690964
190	0x3ff6f77407b1ceb8	1.4354133892601748
191	0xbff875d66b7ac5ef	-1.5287689398213578
192	0xbfeab99d8583b387	-0.8351581199363957
193	0xbfd3fb2469c46b5b	-0.31220350579103745
194	0x3fcfb143f40fa662	0.24759721200034607
195	0x3feae718d4b9574a	0.8407100825086016
196	0xbff05ebcc2e9efcf	-1.02312923563203
197	0xbfb21aed272c3a6a	-0.07072336393705717
198	0x3ff197f36fb05f6a	1.0995973933076706
199	0x3fe8ff55b4c025cc	0.7811687975201322
200	0x3fdc13bb1648642e	0.43870427299549675
201	0xbfd90254eb2e2387	-0.39076731650180146
202	0x3fc4d0f9b33475e8	0.1626274228118938
203	0xbff74aa2fed37924	-1.4557218507903338
204	0x400580ab55986080	2.6878267943503147
205	0xbfe664d199121348	-0.6998069753322875
206	0x3fe2464ca332db3d	0.5710814654802118
207	0x3fed1aec0f5efd3f	0.9095363903251509
208	0xbfd311466a21fde2	-0.2979293858006412
209	0xbfcc4dd2e7e6cc1e	-0.22112499545400593
210	0x3fe4208c7150034d	0.6289732182632207
211	0xbfbe27c710f3b2ed	-0.11779445804468099
212	0x3fdea641d562f088	0.4788975318767901
213	0xbfa07deafb88454a	-0.03221067734205947
214	0x3fb77417cfedd22f	0.09161518885032004
215	0xbff0365ba24e862e	-1.013270982752498
216	0xbfed85b8f31a7531	-0.9225735424148863
217	0xbffbef5597a6f6b6	-1.7459312366403714
218	0x3fdf06205cd12a23	0.4847489267746445
219	0x3ff27ccfa898387b	1.155471476147368
220	0xbff067f03bb59765	-1.0253755886455675
221	0xbfcbc9fc50f1a661	-0.21710161163655342
222	0xbff1c37e45526515	-1.1102278430829007
223	0xbfd4f59563505c1c	-0.3274892301428183
224	0x3fedf45ddbd08e9e	0.9360799115424532
225	0x3fe8bef8316e8ec1	0.7733117070642593
226	0xc00561a941810092	-2.672686111211143
227	0x3fbfae94b3b70ceb	0.1237576426274704
228	0x3f9cf959435655c8	0.028294939742030484
229	0xbfc4e8f78cb0ec9c	-0.1633595883339226
230	0x3fc6676779b59047	0.17503064577897673
231	0xbfb5728ca2ffb1df	-0.0837791345545109
232	0xc002ef2168edf733	-2.366762943040976
233	0xbfc45490e8125c50	-0.1588307507670117
234	0x3fee4ff6ac62e83a	0.9472611777230278
235	0x3ff6d83ee1bc506d	1.427794343738266
236	0xbff4b5c175dacce2	-1.294373951310995
237	0xbfded5fdfc3a14de	-0.4818110430863508
238	0xbfa9e64fda8bf5ea	-0.050585265567843
239	0xbffd440e37ac8020	-1.8291151213416086
240	0x3fc81d2057fa5178	0.18838886543074884
241	0x3fe5f43ac50b710f	0.686063179829519
242	0x3fd9b8a57652d0ab	0.4018949180128952
243	0xbfe39464c421bde3	-0.6118644552897731
244	0xbfd9de39f2a9b14f	-0.40418862054390997
245	0xbfe68eb7d7017200	-0.7049216460541743
246	0xbfeda4cd19076ad8	-0.9263673294875288
247	0x3f8c9401ff75fe4b	0.013954177483127902
248	0x3fcd9961fdf962a1	0.23124337102014628
249	0x3fe78adffe48872d	0.7357025114508581
250	0xc004d2f5775f6bf9	-2.603007252311269
251	0x3ff703f013ed4c47	1.438461377944593
252	0xbfe3630427aa726a	-0.6058369421694583
253	0x3fefdaa26d76478a	0.9954387796335464
254	0xc00108bb480c396d	-2.1292634609919134
255	0x3ff6f46963a61193	1.434670819523579

graph_conv.bias f8 [288]
0	0xbfcac0f51657e04e	-0.20901359168033412
1	0xbffe4dbe0c9c4b86	-1.8939800732229926
2	0x3fe29e1d1a0a500e	0.5818009861563966
3	0x3ff2650d7929ebb5	1.1496710522612663
4	0xbfbe7aff900c7f1c	-0.11906430498902093
5	0x3fe07657928c626d	0.514446054675387
6	0xbfcf0738a13cd676	-0.2424078738492203
7	0xbfff21272affc651	-1.9455939941075437
8	0xbff7a5ea20b21cbb	-1.4780064847162027
9	0xbfc8a42321c7b2d5	-0.19250907086770633
10	0xbffe2f33d6cf8298	-1.8865240469969304
11	0xbfd8d0c0f8002ecc	-0.38774131983585103
12	0xbfeefbf2962f7f20	-0.9682553227721407
13	0xbfa5aea5c7239cf5	-0.04234808021447548
14	0x40073e55a8172561	2.905436814504967
15	0x3fc5d2aa6030bdba	0.1704915017776168
16	0xc00240fde9ddd4a6	-2.2817343016455025
17	0xbfc7cf8c8af5d061	-0.18602139268080278
18	0xbfb8a926bf2a1330	-0.09633104483698385
19	0x3feaaa3cd6560b0a	0.8332809625866002
20	0xbff275f4ae8ea404	-1.1537977999344102
21	0x3faf7760bce3a0f3	0.061457655961762024
22	0x3ffe15371c9b5ddb	1.8801795117814126
23	0x3fd076ac59820270	0.2572432397937865
24	0x3ff2127fbfb12ff8	1.1295163619970463
25	0x3ff7fa6e03366f47	1.4986400723928044
26	0x3ff85f67c920d363	1.523292337090617
27	0xbff208c265badc63	-1.1271385167908867
28	0x3ffcc554ecf27d06	1.7981766944647588
29	0xbfd7c20b9f757df8	-0.3712185914245931
30	0x3ff0691d8ca2e170	1.0256629460910425
31	0x3fc898af8733d472	0.19215959645922315
32	0x3feb6c71700f3cc0	0.8569876850759997
33	0x3fcb0b35a0a46475	0.2112795862565552
34	0xbfed53750abb71ed	-0.9164376458753033
35	0x3fdeeb190c07bdd8	0.48309923338726213
36	0x3fc5794ccca49b8e	0.16776428215345301
37	0xbfc51e11d51f65a2	-0.16498015314463738
38	0xbf8ef5ee0fe377a1	-0.015117511615638625
39	0xbfea79c1914cabee	-0.8273628080254392
40	0x3fbf62f84c99d2c5	0.12260391111505971
41	0x3fe363aebbd63c01	0.6059182804764306
42	0x3ffc70ceb411d383	1.777540877720839
43	0x3ff2e7fdc23c6f0c	1.1816384875627959
44	0x3fe6e8bf81d6cf41	0.7159116302413865
45	0x3ffffc1ac496686a	1.9990489653778476
46	0xbfe58804ba1741da	-0.6728538164698492
47	0xbfe386ac6f85e2de	-0.6101896455939728
48	0xbfe94965edf88455	-0.7902097366205775
49	0x3fe7a690ed985e4e	0.7390827789813075
50	0xbfe86d542560952b	-0.7633457880043911
51	0x3fc994882664befa	0.19984533190426373
52	0x3fec5c87bf71d504	0.8862951983598184
53	0x3ff071373ffad5e7	1.027640581055829
54	0xbfdfdfe6a20e8649	-0.49804082704404046
55	0xbfc3e243a1958eee	-0.15534253492216216
56	0x3fe48293e8022e0b	0.640939667836791
57	0x3ff29e21e9a4a157	1.1636065603907662
58	0xbfac5b484c5ed279	-0.05538392956024025
59	0x3ff0c13d205949a8	1.0471774352668977
60	0xbfce55276ba6a790	-0.23697369343181807
61	0x3fea5420a60f5552	0.8227694743497216
62	0x3ffa047add344e83	1.62609373481692
63	0x3fba7e7c7315fba1	0.10349252519334452
64	0x3feaac0375cb73d9	0.833497743671269
65	0xbfd36e7f54f7d5e7	-0.30361922547976267
66	0xbfc24a3c4a51037f	-0.1428904879449213
67	0xbfadd28ae2d17f6f	-0.0582469369771833
68	0xbfe9fc589c512b64	-0.812053971583151
69	0x3ff2985919ad5143	1.1621943476685181
70	0xbfef768659aac789	-0.9832183600722014
71	0xbfee02cc14bfb924	-0.9378414540531463
72	0xbfccaf48524b87ee	-0.22409919756233826
73	0x3ff45b2ee66c0d12	1.2722615242826731
74	0xbff0202202676965	-1.0078449338821767
75	0x3fe7c4daa2812237	0.7427800344385734
76	0x3ff7c894c46ae934	1.4864700005114857
77	0xbfe767b6434436a5	-0.7314101518438362
78	0x3ff51c1871f749a7	1.3193592502399072
79	0x3fda35ef5ca629f2	0.4095419316078327
80	0x3ff9735e110dd62d	1.5906658807920266
81	0xbfef87ce93315623	-0.9853279948098969
82	0xbff4dc4b21a10010	-1.3037825883511722
83	0x3fe5f391dbb336cc	0.685982636548681
84	0x3fd03242f7e4a166	0.2530677243071494
85	0x3ff4134998c4fdb1	1.254708859210819
86	0x3fd28c095415ff5c	0.2897971459533346
87	0xbfee77bae19df1b1	-0.952115479143279
88	0xbff26a404de16e9f	-1.150940231534072
89	0x3fdb9e53eb2b8f31	0.4315385624488384
90	0xbfdd519cdbc54041	-0.4581062456318286
91	0xbfc51292c3b3f722	-0.16462931209383053
92	0x3fe9e4c75cf760e7	0.8091770950077518
93	0x3fce7a9a1734bf00	0.23811651356799501
94	0x3fe799240f7cc993	0.7374439527978204
95	0xbfeee07179f93623	-0.9648978597921921
96	0xbfe1ac0e75a93b11	-0.5522529886310129
97	0x3ff8eb3f2fd55239	1.5574333065498094
98	0xbfd0434c462f9e2b	-0.25410754064657465
99	0xbfde3fe82f509b16	-0.4726505720195048
100	0x3fd75e9892939761	0.36514868082155344
101	0x3ff76a7f914067f3	1.4635005639925083
102	0x3ff054acc8b9df23	1.0206725922452697
103	0xbfc90903e333c002	-0.19558762163023863
104	0x3fd0026bee962d8d	0.25014780330158076
105	0x3fe6d46f7406f365	0.7134320512919713
106	0xbfd667a9433c7a7f	-0.35007697645225017
107	0xbff8054de7b19899	-1.5012949991737854
108	0x3fe6f8f9133a0a51	0.7178922057649492
109	0x3fec9f86db5bd967	0.894473484454278
110	0xbfd8ab1723913ac9	-0.38544252847070176
111	0xbff11b7d336170f7	-1.069211197572313
112	0x3fd26ce244852d1c	0.28789574328830425
113	0x3feb8857b5d77e59	0.8603933860394576
114	0x3ff130930fd6836b	1.0743589991254463
115	0xbfdc9b9a5e8380e4	-0.4469972537026605
116	0x3ff344b3fb7f7cf0	1.2042732071056967
117	0x3ff9074aa3c96ab4	1.564280166427733
118	0xbfeeffb220a6441d	-0.9687128675160498
119	0xbff63aa5db54ecaf	-1.3893183295865972
120	0xbfcfa7cc84dc038d	-0.24730831610943618
121	0x3ff9efd66e8d9569	1.6210541075209568
122	0xbffcf0450b39a727	-1.808659595344986
123	0xbff20deb71eea98b	-1.1283983660201524
124	0x3feec9b8f8883e7d	0.9621243337769126
125	0x3ff65aca984cfae3	1.3971658658262462
126	0xbfe71508995827bb	-0.7213175768858869
127	0x3ff2c30bd1815d97	1.1726186927606699
128	0x3fdfa1bef6bc49b8	0.4942471894766203
129	0x3ff16ebdf12058c2	1.0895366114614693
130	0x3fc37d1a794671c9	0.15225535318030683
131	0xbf9ee64548dc08c6	-0.030175287792197712
132	0x3ffa7c84e2c736de	1.655400167324323
133	0x3fd5568bb78d9f00	0.3334073345672408
134	0x3feb95122802e576	0.8619471341582272
135	0xbfe4ad07dfa51269	-0.646121918493532
136	0x3fd7cc30a515615d	0.37183776971280286
137	0x3fdd747daa28ea86	0.4602350389210773
138	0xbfd84ddd70f38629	-0.3797525027312952
139	0x3fe8ce5d66593a6d	0.7751910208697389
140	0xbfc9795cb1a95b40	-0.1990161769378691
141	0xbfe9240a4a117877	-0.7856494375844382
142	0xbff730489a7b0baf	-1.449287990036037
143	0xbfd476864d213f29	-0.3197341683598887
144	0xbfd863f3f7f5ac65	-0.3811006471139023
145	0xbfe3ed92d320db4a	-0.6227506755447874
146	0xbfe5848a4d6bf331	-0.6724292289869479
147	0xbfea79f5470d09a5	-0.8273874652589269
148	0x3fec394894104266	0.8819926158776752
149	0xbff2942424c8d651	-1.161167281808407
150	0x3fc485a15f31512a	0.16032807491377216
151	0xbfde003be0e362b6	-0.46876427613964766
152	0xbfeffb6794e80954	-0.9994390400245643
153	0xbfff78079e900c5e	-1.9668041414122608
154	0xbfe021f3d7d13ada	-0.5041445937329982
155	0x3fb45d10f566b34a	0.07954507819404202
156	0x3fe1f7c50cb0237c	0.5614953277409849
157	0x400048ed7cc87511	2.0356092213320456
158	0xbfe3ca4a7f97e2a1	-0.6184437267357518
159	0xbff10956827e67de	-1.0647797677433952
160	0x3fd8d14e53a5dc92	0.3877750222085946
161	0xbfc0789b9542d2eb	-0.12868065631996414
162	0xbfe41047690d1262	-0.626987176111083
163	0x3ff5105baa44dfed	1.3164936686644026
164	0xbfa2d2534711adcd	-0.036760904717847966
165	0xbf94566428f98130	-0.019860806466000358
166	0x3ff1dbc6a6d22d83	1.1161562458463272
167	0x3fc28e88ca3bad7a	0.14497480272926194
168	0xbff1a4db5bad184d	-1.1027482586955728
169	0x3fe9b9869774e5c4	0.8038971861016582
170	0xbff817ee67e0b5c3	-1.5058425958371664
171	0xbfd4f5929f4183e8	-0.3274885707124313
172	0xbf89d86830df3d5e	-0.01261979483743286
173	0x3ff7ebba724f16d9	1.4950508561318456
174	0xbfec8516ac198340	-0.8912461625405754
175	0xbfec3aebf64a6f12	-0.8821925936094621
176	0xbfdb65437e93e715	-0.42805564271076096
177	0x3feb128b7530f407	0.8460137642756543
178	0x3ff3f1a98d74a506	1.2464995885478074
179	0xbff40e34cf3949cd	-1.2534683317831992
180	0x4001677e95dd724c	2.175534411259184
181	0x40094d9a9557a249	3.162892500626445
182	0xbff0aff3dd74460a	-1.042957177215046
183	0xbff584475b9db356	-1.3447946146727268
184	0xbff724b0884e04aa	-1.4464574169544826
185	0x3fe559a3243cd02f	0.6671920497669869
186	0xbff352fe201f6a62	-1.2077618841928133
187	0x3fe4e83cde1d65a9	0.6533493364506074
188	0x4000f625251a9d5e	2.1201880358454863
189	0x3fe2021072fa8931	0.5627519841839669
190	0xbfee98cde558a0a7	-0.9561528663080211
191	0xbff08bb372f66cb6	-1.0341066828466814
192	0xbfc416e87cf61bae	-0.15694910146359348
193	0x3ff484a17cd273b2	1.2823805690634171
194	0xc006f58fdc0c7a3f	-2.8699032965953672
195	0x3fd69a72096a428c	0.3531766025489922
196	0xbfbf0ac2432c75fe	-0.12125791683180151
197	0xbfec581fc273b075	-0.8857573316468136
198	0xbff885852d88a434	-1.5325977114355398
199	0x3fee2dbb8ef69e3f	0.9430825989010784
200	0x3fe16ecc0ef26663	0.5447750369959973
201	0x3fd32de2d108076c	0.29967565930575435
202	0xbfd8de29e94ce0bd	-0.38855979712708316
203	0xbff7e54a469be1e1	-1.4934790380631215
204	0xbff5041227135088	-1.313493874205081
205	0x3ffa8df3fdb75c10	1.6596565161505659
206	0xbffb59a8ca86f513	-1.709389487382684
207	0x3fc31da9bfff40b4	0.149342745541167
208	0x3fb0e60c6440f564	0.06601026008225613
209	0xbff018732d2f0ffe	-1.0059692158692992
210	0x3ff39915edd61f1f	1.2248744287953242
211	0x3fd3c4fdc30cd889	0.30889839218014764
212	0xbfca7b4ad841709c	-0.20688758429867427
213	0x3ff5ba903fcc1648	1.3580477230147086
214	0xbff870068afa2021	-1.5273499897757647
215	0xbffcc38f2cdf91b4	-1.7977439644683786
216	0xbf94a5e248fc5726	-0.02016404695958509
217	0x3fb4148374eff99e	0.07843801121632629
218	0xbffaaf6beb5a0882	-1.6678275292802316
219	0x3fef7c1722844aca	0.9838977502971258
220	0x3ff5d901cc16d90a	1.3654802295910167
221	0x3ff7c51d10aa4cc7	1.4856234217630104
222	0xbff3d8f3271d0e26	-1.2404662635680181
223	0x3ff124ba66246e5b	1.071466826432604
224	0x3ff88a240b8b74b3	1.5337257815329337
225	0x3fcce04ad3ea776c	0.22559485766845044
226	0x3fce8e2cdca4c57f	0.238713844047691
227	0xc00889b87655bf19	-3.067246365062499
228	0x3ffaf846da5e8034	1.685614445690601
229	0x4002001f9937fd97	2.250060269375989
230	0xbf9fa391e0635247	-0.0308974068837691
231	0x3fa30ba8b64ca9d4	0.03719832635245593
232	0x3fee5733d885c036	0.9481448391870859
233	0xbfe3d6790f2aa3bf	-0.619930772421064
234	0x3fe1dafc32632463	0.5579815849424786
235	0x3fca705e8d47ffc4	0.20655424021242486
236	0x3ffd017789e4f36d	1.812858141565097
237	0x3ffd05af84eab7fb	1.8138880912842967
238	0xbfeb32ff145d53f7	-0.8499751470322953
239	0xbfd57d61f04d129d	-0.33577774493122964
240	0x3fd4e6912fd25c30	0.32657270116891635
241	0xbf9fc546551eb01c	-0.0310259808972405
242	0xc0105e57dc594a9e	-4.09213203711502
243	0xbfe21e4ddef00459	-0.5661992410897582
244	0x3fc8a5902e493a85	0.19255258808194156
245	0x3fcc0cede171e171	0.21914456852006084
246	0xbfce193e04fc513e	-0.2351453327506849
247	0x4001cb02a2de2911	2.2241261219070414
248	0x3ff0ddf3404313c3	1.0541870603785675
249	0x3ff3f5996e0b2860	1.247460775239709
250	0x3ff104481089d340	1.0635452886610466
251	0xc01659cfa2ea1e8a	-5.587706132449634
252	0x400786ac4eb611a9	2.940758337909035
253	0x4003cc792faf0760	2.474840519455867
254	0xbfec005ee9f62f39	-0.8750452584804186
255	0x3fe167587434a638	0.5438654203073332

graph_conv.lin.weight f8 [288, 36]
0	0xbff9103e61908ace	-1.566465741264142
1	0xbfe7d8635498b38a	-0.745164551951903
2	0x3ff4cb2fb5e4384f	1.2996060471664526
3	0xbff3d39227311d61	-1.2391530543262308
4	0x3fd972ee63669c41	0.3976398440085554
5	0x3fe4ed5ab8a3e0f6	0.6539739233258206
6	0xbff5eba51455c5de	-1.3700304788911732
7	0x3fdb6b978f02e7e0	0.4284418961138936
8	0x3fbfca9b009e4414	0.12418526425450721
9	0xbff46337be92ac91	-1.274223083901948
10	0x3fd3dc00bb33d141	0.31030290872083205
11	0xbfb9a278884de389	-0.10013535812130504
12	0xbfe23afe5c54ce9a	-0.5697013667435897
13	0x3fe1feb8e9300d34	0.5623440317580504
14	0x3fd82dba38501763	0.3777909803323977
15	0xbfe490b44271196c	-0.6426640794459622
16	0x3fe1d17461677b07	0.5568181898523513
17	0x3fe70da936ae94b3	0.7204176013953173
18	0xbfdbef44aa9efae0	-0.4364787737103324
19	0x3fd74c6c53b80a96	0.3640394990508552
20	0x3fd9e275f588b456	0.4044470689576135
21	0x3fd39d985f606e76	0.30649384798173374
22	0x3fe80987d3701e33	0.7511633996627495
23	0xbfdb283cda4314f6	-0.4243309146371098
24	0x3fc92740b55873e0	0.19651039938699366
25	0x3ff0d5236410672e	1.0520357044937998
26	0xbfcf5f1007d4c4ab	-0.24508858091716
27	0x3ff3220c25e6a751	1.1958123665339893
28	0x3ff3406290c653e0	1.2032189994108577
29	0x3fe04e41bad5407b	0.5095528267938926
30	0x3fecbed3d6c3fc6e	0.898294372047429
31	0x3fd7df63cde91f35	0.3730096350523014
32	0xbfa7b3fcd6b2a0bb	-0.04629507180044486
33	0x3fec70dcce47dfe8	0.8887771634026622
34	0xbfb2057d38f54e09	-0.07039625778752891
35	0xbfc0604a82ff665b	-0.12793856998796369
36	0xbff8642a6abf4cdf	-1.5244545144858461
37	0xbfe2ba091bdea9de	-0.5852094215709334
38	0x3fa421a11966529e	0.0393190711503497
39	0xbfe98c951007b895	-0.7984109223450725
40	0xbfd2ae0a4a7b36db	-0.2918725707394125
41	0xbfde0296179bd34f	-0.46890785508667404
42	0xbfeb5e983675cbf3	-0.8552971900629686
43	0xbfd4d7229b050f9e	-0.32563080919885035
44	0xbfd08b3ded0d2080	-0.25849865102328096
45	0xbfedc248ec01e508	-0.9299664124984313
46	0xbfe5f3b66269895c	-0.6860000536073971
47	0x3fd408d131d0f6a5	0.313038157128043
48	0xbff29809d759a937	-1.162118760311001
49	0xbfe9701194700f8e	-0.7949302577185209
50	0x3fd497579c05ffe2	0.3217371963182797
51	0xbffba8a10cec8599	-1.7286692147102711
52	0xbff06788f82ab806	-1.0252771085756662
53	0x3fe0417ac512e8c7	0.5079931115244783
54	0xbfe4cf5403a0950e	-0.6503086157651141
55	0x3faad1a3d91a09db	0.05238067650954622
56	0xbfeb22514642d877	-0.8479391453063404
57	0xbfd771124bcc4bd2	-0.3662763347830921
58	0x3fe2efc78363fe68	0.5917699400160474
59	0xbffacf5834816849	-1.6756212283130643
60	0x3fc1b21a31ab0498	0.13824775147626123
61	0x3ff3b639a48964f8	1.231988566132996
62	0xc0012a4b56becc09	-2.145651509950316
63	0xbfe25b82d9806052	-0.573670792396124
64	0x3fcb4c8ee58c38dc	0.21327387054811353
65	0xbfee9580484c19a3	-0.9557496463829022
66	0xbfd82a1b1759b8c4	-0.37756993561096075
67	0xbfef2026c39cac60	-0.9726747341677644
68	0x3fea02c33c3d283e	0.8128372360745357
69	0xbfeaee4492df2554	-0.8415854328715491
70	0xbff693f690738da2	-1.41112381388016
71	0x3fd9c52d7ea61031	0.40265977256808855
72	0xbff98adc79d2a730	-1.5964016684251412
73	0xbff5a4bd0a7f8262	-1.3527193460542084
74	0xbfd6cbca9e173f46	-0.356188444505268
75	0xbff3d13f8283ad37	-1.2385859583108194
76	0xbfe945085f5b1842	-0.7896768438738564
77	0xbf9fcb2c334df7b8	-0.031048479682332902
78	0xbff1e8cb857537e5	-1.1193347180555915
79	0xbfcc4e8484134bb9	-0.22114616822235947
80	0xbff511a5f7ad0e15	-1.3168086695521926
81	0xbfea921eea9cefb8	-0.8303370077405736
82	0xbfb0ddec7d7d14d0	-0.06588628829657073
83	0xbff80798ee7f145b	-1.501854831339435
84	0xbfdcbc3d62685727	-0.4489892445575258
85	0x3fdb1b4fe100d0b4	0.42354199383704416
86	0xbfff1faed3b306f3	-1.9452350873474955
87	0xbfeb122219cc9d85	-0.84596352614328
88	0xbfe14cde0334a4e2	-0.5406332075700926
89	0xbfe0aa5a61514381	-0.5207950497370889
90	0xbfe60d5864a1888b	-0.6891290631722468
91	0xbfef1e2d8fb5076d	-0.9724338347225349
92	0x3fde73719bf8795f	0.4757961295271311
93	0xbfd921051b17e8b9	-0.3926403774818357
94	0x3fb78b2bba275961	0.09196732802170039
95	0xbff612c18597c121	-1.3795790880649934
96	0xbfe00ecef785f7e1	-0.5018076738776892
97	0xbfd25743a16e04be	-0.2865761829817294
98	0xbff64883a0a12d6f	-1.392703654727338
99	0x3fd7456dc9d81d67	0.3636126013884308
100	0xbfd4efbda9b2483a	-0.32713262149730193
101	0xbfc9a11f79512eb6	-0.20022958205878688
102	0x3fd9c8f14d05b14a	0.40288956186011105
103	0xbfdbc4a1c0adf167	-0.43387645546297054
104	0x3fd455a7444e42ba	0.3177278677986056
105	0x3fea7a063aec93fb	0.8273955489026997
106	0xbfd49f58a8bb4ac8	-0.3222257278222682
107	0x3fdc5aac5735b654	0.4430342532785734
108	0x3fe2de41baf2a093	0.5896309520076265
109	0x3f95a81cfd73ff09	0.021149113626051128
110	0xbfd4d6770ee6b7cc	-0.32558990912627617
111	0xbfbb6a819a53cbf5	-0.10709390657193281
112	0xbfe42c5ee47bfbc2	-0.6304163420280633
113	0x3fd2e8f22687f1e9	0.2954678894309653
114	0x3fb2c14728ad1c64	0.07326168768951075
115	0xbfe4e1867431e134	-0.6525299329214591
116	0x3ff273492e5265e3	1.1531459626625
117	0x3fe186ff05d8c5db	0.5477290262407978
118	0x3fc975baf4826c0c	0.1989053434270719
119	0x3fdc88b70eb71d18	0.4458444255546552
120	0xbfb09051066274fe	-0.06470209508775679
121	0xbfd20ba5bf8c9f73	-0.28196090417849645
122	0x3fc50d04e2f72cfa	0.1644598110418441
123	0x3fc833dfd4e03aac	0.18908307928400825
124	0x3fd75d9451a9f75f	0.36508663153641935
125	0xbfe0a651f53cba73	-0.5203027524747327
126	0xbfa5827019b6c249	-0.042010787142662105
127	0xbfc02f08272311e6	-0.12643529807077342
128	0xbfe5d2381ad903d9	-0.6819115185136254
129	0xbfb44ec7d60174d8	-0.07932709669826765
130	0xbfa6822dd315473c	-0.043961936966879084
131	0xbf709afe9b95c54d	-0.004054064332522711
132	0xbfd4c7a71c52b708	-0.32468583837440734
133	0xbfeafaaebbe1636b	-0.8431008977450863
134	0x3fbc8518246da0ad	0.11140585793839604
135	0xbfe03a1caa189ddc	-0.5070937463942147
136	0xbfe13b0a4b3f9e79	-0.5384570569703576
137	0xbfe85f486ad8a8a8	-0.7616312109796768
138	0x3fd7f542cbd2f31f	0.37434453873338386
139	0x3fe1078fbbc50db0	0.5321730296495186
140	0xbfe29d0be08c27c7	-0.5816707025235183
141	0x3fe14493046506a0	0.5396208844978965
142	0x3fc46a0595716779	0.15948552891751058
143	0xbfcbdebc09e56c72	-0.21773481829845626
144	0xbff946002bbc816f	-1.5795900066806003
145	0xbffa96a08e577c7e	-1.6617742119049406
146	0x3fd7340b31d40089	0.3625514971354354
147	0xbff8e3041a583aef	-1.555423834713732
148	0xbff30c3026bc98d3	-1.190475608172666
149	0x3fe1e6b2f2dc4a39	0.5594115012521065
150	0xbff8728821a72a3a	-1.5279618563241812
151	0xbff3fb7a78e3d24a	-1.2488960954916757
152	0x3fe25981bed87895	0.5734261252835205
153	0xbff1a344cc6b2ac9	-1.1023605332472235
154	0xbfeeffe634d7e2a1	-0.9687377006622065
155	0x3ff3ce9af560229b	1.2379407486898006
156	0xbfed886b8d3336eb	-0.9229028470815285
157	0xbff896f577254afc	-1.5368551878097483
158	0x3ff879133e8d21ba	1.5295593684587474
159	0xbfd69e72ca12a57f	-0.3534209226005131
160	0xbfe517441dcd7964	-0.6590900976259886
161	0x3ff2c386e4978511	1.1727360658044896
162	0xbfec37ead9e31181	-0.8818258529286568
163	0xbfe57181e3569d77	-0.6701058807565649
164	0x3fef31d492d54306	0.9748328082879147
165	0xbfea8315bcdd5384	-0.8285015763054706
166	0xbfd84c43f029e0d5	-0.3796548695895699
167	0x3fedbf6ff32de33d	0.9296188115687084
168	0xbfe35b9bd4e1a6e4	-0.6049327047196269
169	0x3f9ee0777e94f744	0.030153147793718263
170	0x3fcd8b2c86233068	0.2308097510307363
171	0x3fd5457fe64beed8	0.33236691942123064
172	0x3fd489dcc08b2e50	0.32091444781392386
173	0x3fc0d16d57609f2b	0.13139120832897197
174	0x3fe102a2580cfa90	0.531571552251835
175	0x3f9fdf57c81edaf7	0.031125423039806113
176	0x3fc2f5f24b9cf4e8	0.14813069049879535
177	0x3fd909a605b1ab40	0.3912138991933496
178	0xbf9d6abbef2a6301	-0.028727470848568085
179	0x3ff4ff0225a4de32	1.3122579069585183
180	0x3faabe2b5eed21a2	0.05223212751167529
181	0x3fc38c2c99402894	0.15271527750912084
182	0xbfab23b467841a27	-0.05300678027747479
183	0x3fd59bf9cf4ec654	0.3376450085153
184	0x3fe9dd61186a4f0e	0.8082738377438277
185	0xbfebb515899bfd87	-0.8658549964601868
186	0x3fc49d43bbc2b851	0.16104933422087922
187	0x3fe8e0efc4a2de38	0.7774580803442808
188	0xbfdc53b7855e7525	-0.44260967277826274
189	0x3fb800a50f19d1e8	0.0937598382823307
190	0x3fec542d0afca2d4	0.8852753843867398
191	0xbfd2050710838185	-0.2815568600908807
192	0xbfb65a01b2fa263a	-0.08731089229163383
193	0x3fc3aac61f9436f5	0.1536491064256819
194	0x3fe555d675127aca	0.666728237778295
195	0xbfe04792e0acdd4f	-0.5087370289028658
196	0x3fa390f185455579	0.038215205686962635
197	0x3fdd26a7d20ec410	0.45548434747166855
198	0x3fc0c61724c95f52	0.13104523941251017
199	0x3fceabdda0dd85bd	0.23961992602111862
200	0xbfde157e775f22be	-0.4700618901957049
201	0xbfa17262b75ce7d5	-0.03407581795040896
202	0x3fb690f4d1936db1	0.08814935795401514
203	0x3fb396f2ca938abd	0.07652203984938928
204	0x3ff4ec885ab2c872	1.307747225084793
205	0x3ff94adb64cc1528	1.5807756364241161
206	0xbfec9a187ec093c9	-0.8938105083112698
207	0x3fed04c27484de3a	0.9068310046922712
208	0x3fec2e8945098af6	0.8806806896576223
209	0xbfb2bcdf64daee43	-0.0731944676617156
210	0x3fcd215a5442c84f	0.22758034815120928
211	0xbfded2b5fc542752	-0.4816107715747552
212	0x3fec5a14f5f28704	0.8859963229808447
213	0xbfefc5696428c700	-0.9928481060253205
214	0xbfea3b35ed7e5c0f	-0.8197278631731723
215	0x3ff19bf02242bf3b	1.1005708063421042
216	0xbff43266c018e73e	-1.2623050216484013
217	0xbfe6eb1fba0661da	-0.7162016518878389
218	0xbfebbe34f3d470e4	-0.8669686090757094
219	0xbfdd56cc0f95bd20	-0.4584226753422218
220	0xbfd375a55ebc8dd9	-0.30405554057707956
221	0xbfdbc05869125eb2	-0.4336148286906606
222	0x3fa1602325b88c9a	0.03393659434757375
223	0x3fec535fa64c9a50	0.8851774452239827
224	0xbffebb04c922cb23	-1.9206588608619277
225	0xbff02806bac2c6b3	-1.0097720427842602
226	0xbfea8f18c95a93e5	-0.8299678738300115
227	0xbfe6caa4edd6b93e	-0.7122368474281655
228	0xbfc0a55d0dd1446f	-0.130046493288805
229	0xbfaa66e3dff5eb93	-0.05156623944181784
230	0xbfeda3e8a4db5f7f	-0.9262583942281565
231	0xbfe7b697304a96a8	-0.7410388892355586
232	0xbfd1d3db50fe86ef	-0.27855570706934335
233	0xbfe7451878d617ee	-0.7271845207294498
234	0xbfe156ed5a548ecf	-0.5418612255347969
235	0xbfc23ef965481d3c	-0.14254682011981312
236	0xbfe3f9c92a0343e0	-0.6242414303361521
237	0x3fe60d63ce15fd53	0.6891345048060579
238	0x3febf14032a151ca	0.8731995571966362
239	0xbff2ac363c739752	-1.1670439111125757
240	0x3fbf23b888f38697	0.12163880675827908
241	0x3fe1a74745bc1ea2	0.5516697275169984
242	0xbfe9f78a8d007a98	-0.8114674333517824
243	0x3ff8ec3830dc3230	1.5576707752799273
244	0x3ff705261b16b405	1.4387570436622366
245	0xbff10650b5d2d102	-1.0640418150406394
246	0x3fed523c31c0d15e	0.9162884685270389
247	0x3fd378c4cf0abd1a	0.30424614161434393
248	0x3fe6879b9d23ccd6	0.7040536946427902
249	0x3fec841ddd9aa09d	0.8911275222972282
250	0xbfe5bbf13da3986c	-0.6791921810042942
251	0x3ff0c9ba115a36a8	1.0492497136905659
252	0xbff0bdb30d7716c6	-1.046313335989383
253	0x3f9425d143a7038e	0.01967551207940548
254	0xbfe76e3448c60824	-0.7322026654585483
255	0xbfd7008550d19111	-0.35940678493922557
